.dart_tool/chrome-device/Default/optimization_guide_prediction_model_downloads/72b3f72b-e48c-4601-958d-8b16fce84853/model.tflite (tflite, 410376 bytes, 166 tensors)

context_transformer_0/bottleneck_input/norm/add f4 [32]
00000000: 88cb 323e a8d5 673d a134 5bbd 2907 c03c
00000010: 7f02 1e3d e0a4 be3c 2ed9 dfbd 7ea1 dd3c
00000020: 2205 6f3c 64b9 90bd 1c72 793d c2ac 403d
00000030: 2283 143d 3a37 13be faa6 f6bd 371b 50bb
00000040: 8079 903d 51b8 97bd a084 623b e21e a73d
00000050: 0e32 9abd fece ddbd e227 253d 506c d23d
00000060: c4e0 3a3d 1ddc 003e 8d56 043d 0e0b b6bd
00000070: 22c9 89bd 7006 84bd 08e5 7b3d c914 7f3d
0.17460454 0.056600243 -0.053516988 0.023440914 0.0385766 0.023271978 -0.109300956 0.027054545
0.014588626 -0.070666105 0.06089984 0.047039755 0.03625787 -0.14376536 -0.12043567 -0.0031754503
0.07054424 -0.074082024 0.0034563914 0.08160187 -0.075290784 -0.10830496 0.04032124 0.10274565
0.04562451 0.12583967 0.032309104 -0.08888827 -0.06727816 -0.0644654 0.061497718 0.06227568

context_transformer_1/bottleneck_input/norm/add f4 [32]
00000000: d225 d03c 2ecb c4bd 3c55 183e f15e 713c
00000010: e5c7 3b3d 50d8 4a3c 2233 403d 6b07 94bc
00000020: a69d 723c de11 bdbd 9c7b d9bd f8b7 753e
00000030: f3a4 0f3d f01a 3f3d 87d2 0cbd 02a1 e83b
00000040: 3af2 4ebe d75d 44bd 54de 943d 0f7f 19bd
00000050: 9a68 b43d ef84 aabd d2c5 2d3e fe9b d5bd
00000060: e1af 20be e80a 303d 9b4b 19be 519a a03d
00000070: 022c 803c 1404 8c3c aa15 563e e2b1 02bb
0.02540866 -0.09609066 0.14876264 0.014732108 0.04584493 0.0123806745 0.046923764 -0.018069943
0.014808094 -0.092319235 -0.1061928 0.2399596 0.035069417 0.04665655 -0.034380462 0.0070992718
-0.2020959 -0.047941055 0.07268968 -0.03747469 0.08809014 -0.08326136 0.16969994 -0.10430144
-0.15692092 0.04297915 -0.14970247 0.078419335 0.015645985 0.017091788 0.20906702 -0.0019942452

mention_transformer_0/bottleneck_input/norm/add f4 [32]
00000000: c647 1ebe bc52 1c3e 4b12 abbd 68d2 b8bd
00000010: d2bd 2dbe 4545 643d c472 893d 86ee 7dbd
00000020: b85f fa3d 5bda c4bd 153a 563c b268 133e
00000030: c651 75bb 3644 3dbd c6ce 6cbe f8fc a8bd
00000040: 9e19 913c f8de 993a 10b5 083e 9262 eb3d
00000050: eaea a63d 77a9 033e 48fb 663e 53f3 6dbc
00000060: d6b8 68be 13e2 20be 7a88 78be ece5 dbbd
00000070: 18f5 073e 775f ea3c 74bb a9bb d603 98be
-0.15457067 0.15265936 -0.083530985 -0.09024507 -0.16966942 0.055730123 0.06711343 -0.06199505
0.12225288 -0.096119605 0.013075371 0.14395407 -0.0037432774 -0.04620763 -0.23125753 -0.08251375
0.01771241 0.0011739423 0.1335032 0.1149341 0.08150275 0.12857614 0.22556794 -0.014523345
-0.2272676 -0.1571124 -0.24270812 -0.107372135 0.1327709 0.028609974 -0.005179817 -0.29690427

mention_transformer_1/bottleneck_input/norm/add f4 [32]
00000000: 7833 e8bd 5481 683e 6866 c03c dcf6 c8be
00000010: 2b64 8dbe 0084 953d ce70 88bd ecef aebd
00000020: 0971 65be 0fdf b5bd 1ad3 debd e830 72bc
00000030: a7ba cdbd 1a4d 383e aadd bf3e 08cb ee3d
00000040: a018 6cba 60b6 81be 58d3 ca3c 0660 083e
00000050: f0f5 19be 289e a8be e808 9cbd 6b96 56bd
00000060: 8a80 cabd f0c7 163c 189e 0b3e 41b3 21be
00000070: 0029 413a c6c6 4bbe f4f4 913e 71f1 b2be
-0.11337942 0.22705585 0.023486331 -0.3925084 -0.27615485 0.073005676 -0.06662141 -0.08541855
-0.224064 -0.08880436 -0.10880108 -0.014782168 -0.10045367 0.17998162 0.37473804 0.11659819
-0.0009006355 -0.25334454 0.02475898 0.1331788 -0.15035224 -0.32933164 -0.07618886 -0.052389544
-0.09887798 0.009202942 0.13634527 -0.15791036 0.0007368475 -0.19900045 0.28507197 -0.3494983

context_transformer_0/attention/value/add;context_transformer_0/attention/value/einsum/Einsum;context_transformer_0/attention/value/add/ReadVariableOp/resource f4 [32]
00000000: b97a 96bd b54a 083d da21 4b3d 1aa2 37bc
00000010: 6a21 2fbc dacf 65bd b3ab 06bd 695b 2abd
00000020: e865 b53c 9430 583d 9535 8c3a ec5b f93d
00000030: e19f 9c3d d80f 6a3d ea09 1bbd 2fab 9fbd
00000040: 2938 9c3d 4e34 ad3d b2aa 993d ebfb 043e
00000050: 1dcd 7dbd 4a1d 9cbc 1645 173e e1d4 d53c
00000060: 7adf 3fbd 86b5 dfbb 8408 403c e3d4 6b3d
00000070: 12ef 3cbc 6602 efbc 3794 053d 8c07 4abc
-0.07347626 0.03327437 0.04959283 -0.011208082 -0.010689119 -0.056106426 -0.03287859 -0.04159108
0.02214332 0.052780703 0.0010697121 0.12175736 0.07647682 0.057144016 -0.03785125 -0.077963226
0.07627899 0.08457242 0.07503261 0.12986724 -0.06196319 -0.019056935 0.14772448 0.026102485
-0.046843983 -0.006827059 0.01172078 0.05757607 -0.011531608 -0.029175948 0.03261205 -0.012330901

context_transformer_0/bottleneck_input/norm/mul f4 [32, 32]
00000000: 8971 b93e f0c6 40be 74dc 06bd 4566 c33c
00000010: 9620 183e b012 cbbd c083 c3bd be6b 8fbd
00000020: 0497 6dbe 7236 a83d fead b3be 00c6 83be
00000030: 6709 08be 524f 4cbe 1c89 5e3c a2c1 c63e
00000040: 90af bcbe 13eb a7bd c920 853d b93f debe
00000050: 4ca4 053e 077e 343e 19f7 f4bd f203 86bd
00000060: 253d b4bc d261 873d 9ae9 fdbc acb0 4bbd
00000070: 246b 0abe 694d 05be 8efe 1e3d 8b56 a93d
00000080: 57d5 573b 50b3 01be f316 693e 1d0a 293e
00000090: 8424 edbd 7a19 6fbe 4efc 9bbd 3f2c ea3d
000000a0: 3ca9 a13d 372d e4bd 1c5e 1cbe 0812 a4bd
000000b0: 8c5c 20bd abe3 acbd 956c c73d 6cf1 1abe
000000c0: 59b0 86bc 88ad 423d bee8 8e3e 9773 8fbe
000000d0: 9c71 873e 13df 43bd 8405 d1bd ad17 d6bd
000000e0: 0289 4bbe 09e8 6fbe 5d91 75be 1219 8b3e
000000f0: e05e 36be f2f5 ac3d 7678 de3d d0b4 e83c
00000100: 3e85 263e a1de e4be e99f afbe 2020 48be
00000110: 68ba e3be 1ca2 d53c d685 393f 27ac 4d3e
00000120: 765f 30bf ceb7 9a3e cbae 283f 863d 583e
00000130: 7966 d5bd 9d6e 19be 2f8b 9f3d 6ecc 7fbc
00000140: 16ae ecbd 8f35 96bf e5f8 afbd 6846 ff3c
00000150: 4f57 bcbe c73f 3c3e 59a1 e73c 5c41 213d
00000160: 5809 40bf e3ec 30be 5b26 b4be 7115 843f
00000170: 8dd1 a03d 9c8a c53e 92d3 c43e 7021 ebbe
00000180: 6c20 e3bd 556f 15be 5b34 7f3d 42ef 70be
00000190: 39ea 7abe 89e5 92be 6578 14be 0baa 49bd
000001a0: 6f1f a5bc f8ca 23be 0071 853e eb7c aebd
000001b0: cb83 aabb f8f4 28be 9247 c93c f66e 34be
000001c0: 0baf ebbd 3a57 0b3d 055d 7fbe 69ae 953e
000001d0: 9ba6 4dbe a13e 733c d33d 7b3c b516 b3bd
000001e0: e4d1 70be 25d1 7f3d ae19 cbbd 396e b4be
000001f0: 5056 19be b53b 7a3d e825 93bc 6e5e 2b3e
00000200: 7a39 3c3e 20ba b53d 8a00 453b 7649 0cbe
00000210: 2b4a cebd 51e0 143b 5703 6dbc 1fa3 ef3d
00000220: 1aba 3d3d e003 3e3e 1994 9d3d 7832 633c
00000230: cb89 b13c 31dd 0b3e 63f3 a4bd 6734 adbd
00000240: d130 18be 71d5 a33e c57c aabd b939 8f3d
00000250: 28c7 43bd 4235 113c bd65 1dbd 8593 23be
00000260: e45c d5bd 16fc 7dbc 4375 84bd c1ce b2bd
00000270: fb6d 98bd 5f47 babb dbc9 2e3d 5f40 6d3d
00000280: e1d6 a53e 8c6a 31be 38ac 9d3d 5f93 823e
00000290: e6df 493d fed2 54be db0e 28bc 6c33 99bd
000002a0: f48e c1bd a811 87be 32c8 0ebe 603a 053f
000002b0: 68de a7be 9b63 6c3c 81a3 cdbe 1453 1a3f
000002c0: f2ef dfbd ac87 14bd 237b 70bf c151 3d3e
000002d0: 689f 20bf 0472 4f3e ae63 263e 0673 193f
000002e0: 9490 9fbe 267f 02be 7797 86be 215e 9a3e
000002f0: 9c36 a1be e3cb 053e 0a62 883d e7a8 5bbb
00000300: a61a a33d 2a3b 25be 20ba f03d c5a7 aabd
00000310: ba9c fe3d 65cf 463e 2f95 2ebd 0d0b 93bd
00000320: 13d3 9bbd 7f16 193e 7b65 243d a633 643c
00000330: 5ddb 123d 161b d6be b7b5 45be b50a 52be
00000340: 4ca1 c9bd bd44 a0be ac7a 383e 564d 97bd
00000350: b7ae 8ebe 31ed dcbe e224 f9bd 932b cc3e
00000360: bd6b 9b3c edd6 8b3c 9497 e0bd f423 72be
00000370: 66f5 573e cdc4 15bb 50b6 69bb 84fc 9ebe
00000380: 1051 92bc 22ea dfbd f7ef 0dbd 520c 373c
00000390: 2298 db3c 892b df3d c7ec 97be 60c3 f0bd
000003a0: 49d5 37bd a2f5 f23c 71c6 26be 90c8 e8bd
000003b0: 864e b03c bd8d 433c e3b1 a5be f0dc 81be
000003c0: a4de 513d 1946 b7bd 2484 6b3e afa1 e33d
000003d0: a5fb 033e cc29 343d 4ec0 453e c0fe 62bd
000003e0: 8ed5 15bd b73c 5b3c 6f85 373d a2ae 88bd
000003f0: 2ffb a1bc 17e1 ca3d 5575 99bc e654 64bd
0.36219433 -0.18825889 -0.032925084 0.023852477 0.1485618 -0.09915674 -0.09546614 -0.07002972
-0.23202139 0.082135096 -0.35093683 -0.25737 -0.13284837 -0.19952133 0.013582494 0.38819605
-0.36852694 -0.08199134 0.06500394 -0.43407992 0.13050956 0.176262 -0.11961193 -0.06543721
-0.022001812 0.066104546 -0.030995179 -0.049729034 -0.13517433 -0.13017811 0.03881698 0.0826846
0.0032933557 -0.12666059 0.2276266 0.16507764 -0.115792304 -0.23349562 -0.07616483 0.114342205
0.07893607 -0.111414365 -0.15270275 -0.08011252 -0.03915076 -0.08441862 0.09737507 -0.15131158
-0.016441511 0.047528774 0.27911943 -0.28017876 0.26453865 -0.047820162 -0.1020613 -0.104537345
-0.19876483 -0.23428358 -0.23981233 0.27167565 -0.1780963 0.08445348 0.1086282 0.02840653
0.16261765 -0.44701102 -0.3430169 -0.19543505 -0.44478154 0.026078276 0.7246984 0.20085202
-0.6889566 0.30218357 0.6589171 0.2111722 -0.10419936 -0.14983602 0.07790219 -0.015612705
-0.11556642 -1.1735095 -0.08592395 0.031161502 -0.3678536 0.18383704 0.028275179 0.039368972
-0.7501426 -0.17277865 -0.35185513 1.0319043 0.07852469 0.38582313 0.38442665 -0.45923948
-0.11090168 -0.14593251 0.06230579 -0.2352877 -0.24503411 -0.28690746 -0.14499052 -0.04923443
-0.02015659 -0.15995395 0.26062775 -0.0851992 -0.005203699 -0.16499698 0.02457026 -0.17620453
-0.11507996 0.034018733 -0.24937828 0.29234627 -0.20083086 0.014846475 0.015334564 -0.087445654
-0.23517567 0.062455315 -0.099170074 -0.35240343 -0.14974332 0.061092097 -0.017962411 0.16735241
0.183813 0.08873391 0.0030060136 -0.13699898 -0.1007274 0.002271671 -0.014466128 0.11701035
0.04632006 0.18556166 0.07694263 0.013867013 0.02167215 0.13658597 -0.08054235 -0.084572606
-0.14862372 0.3199878 -0.08324579 0.069934316 -0.047797352 0.008862795 -0.038427103 -0.15974243
-0.10418108 -0.0155019965 -0.064676784 -0.087308414 -0.07442852 -0.0056847776 0.042672973 0.057922717
0.32390502 -0.173258 0.07698864 0.2550306 0.04928579 -0.20783612 -0.010257448 -0.07480511
-0.09451094 -0.26380658 -0.13943556 0.520422 -0.3278687 0.014428045 -0.40163806 0.6028302
-0.10934438 -0.0362622 -0.9393789 0.18488218 -0.62743235 0.20258337 0.16248962 0.59941137
-0.31164992 -0.12743816 -0.26287434 0.3014994 -0.31486976 0.13066058 0.066593245 -0.0033517422
0.07964067 -0.1613585 0.117542505 -0.08332781 0.12432237 0.19415052 -0.04262274 -0.07179842
-0.076086186 0.14949988 0.04013584 0.01392833 0.035853732 -0.4181754 -0.193076 -0.20511897
-0.09845218 -0.31302443 0.18015546 -0.073877975 -0.27867672 -0.43149713 -0.12165238 0.39876994
0.018972272 0.017070258 -0.10966411 -0.23646528 0.21089706 -0.0022852898 -0.0035661645 -0.3105203
-0.01786092 -0.10933329 -0.034652676 0.011172371 0.026805941 0.108969755 -0.29672834 -0.11756015
-0.04488114 0.029658142 -0.16286637 -0.11366379 0.021521818 0.0119356485 -0.3236228 -0.25363874
0.051237717 -0.08948917 0.22999626 0.11114823 0.12888964 0.043985173 0.1931164 -0.05541873
-0.036580615 0.013381175 0.044804987 -0.066739336 -0.019773094 0.09906214 -0.018732706 -0.055745028

context_transformer_0/kq_shared_bottleneck/norm/mul;context_transformer_0/kq_shared_bottleneck/norm/add;context_transformer_0/attention/key/einsum/Einsum;context_transformer_0/attention/key/add;context_transformer_0/attention/value/einsum/Einsum;context_transformer_0/attention/key/add/ReadVariableOp/resource f4 [32]
00000000: 69dc 8dbe 32de b9bd 1d08 723d cac5 82bc
00000010: 535a acbd 53ab 503e e716 193e f67b a0bd
00000020: bae2 95bc 0760 29be 3165 803d bd9d 153e
00000030: bc2b 913d 482c ccbd fc5c a6bd e4d9 f83c
00000040: 7e7f 8d3d fd83 693d 7630 30be c1e4 073c
00000050: 1c22 8e3d 4a03 cdbd fa1c 9c3c c914 12be
00000060: 3a72 683d 43d1 c2be dabf d7bd 7d1a 423e
00000070: 2900 bebc 98b8 c53d 8a2d e8bd 9414 82bd
-0.27707222 -0.090755835 0.05908977 -0.015963454 -0.084156655 0.20377855 0.14950143 -0.07836144
-0.018296588 -0.16540538 0.06269301 0.14610954 0.0708842 -0.099693835 -0.08123204 0.030377336
0.06909083 0.05701064 -0.17205986 0.008294285 0.069400996 -0.10010393 0.019056786 -0.14265741
0.05674956 -0.3805028 -0.1053464 0.18955417 -0.023193436 0.09654349 -0.11336811 -0.06351581

context_transformer_0/kq_shared_bottleneck/norm/mul;context_transformer_0/kq_shared_bottleneck/norm/add;context_transformer_0/attention/key/einsum/Einsum;context_transformer_0/attention/key/add;context_transformer_0/attention/value/einsum/Einsum;context_transformer_0/attention/key/add/ReadVariableOp/resource1 f4 [32, 32]
00000000: 2ae7 86be 8adc 9b3e a1cc 3dbe 910e 15be
00000010: 3e22 adbc 1c6c a2bc 6fe1 3f3e bbf5 a1be
00000020: f831 ab3e 42ee 89be d4d8 d9be 8eca 073e
00000030: 357f 79be d9d8 39be 786d 28bd 9c8e c23c
00000040: 111f 943d 9c6c af3c 7597 323e 8b2f 3c3d
00000050: c3c6 953d dafb 83bd 7109 0fbd 3928 c93c
00000060: ad37 a2be 8b25 343e ac64 563d 0852 803e
00000070: 5bb2 4a3b 4786 7fbd 54cb 8bbe 48cb 85bd
00000080: f71f f13d e1c9 8fbe 7fc7 033e 60f1 f3bd
00000090: 401c f8bd e803 983e 3a71 3a3d 0859 ea3e
000000a0: 56d4 21be 608a cd3e 4a10 863d 6bf9 55bc
000000b0: cde7 3f3d 5598 383e bb68 183c 8fbf a0be
000000c0: a787 2bbe 902b b5bc 7e33 eb3d 75ed 5fbd
000000d0: e31d 4abe 6b42 24be 0ab0 af3d 0ae6 43bd
000000e0: 4f37 463e 58bc 9c3d 9a20 c93d a48b 003d
000000f0: bc33 493d 5503 5dbe 5308 283d cfe3 be3d
00000100: cbd7 bcbd 14a9 993e 791f 37be a0bf 133e
00000110: 3ab4 1e3e 1298 81be f417 98bc 19ee ebbe
00000120: fecc f43d 2caf d4be 98a6 c6bc 6eb8 74bc
00000130: 164f b0bb 2ac5 21be c514 8b3c 0e98 a13e
00000140: e49a 2d3e 270a 833d 82c8 ccbd acc4 dc3d
00000150: 0729 563e a802 073e e97b bbbd 9568 173d
00000160: 5d1e 34be e407 e0bd 4410 b0bd 42c2 a63d
00000170: 68e5 15bd d750 403e 8399 32bd 5833 abbd
00000180: 7919 0c3e 45e0 64be b830 2b3e 8ea2 56be
00000190: 5c99 3fbe 44f8 623e 67e6 66bd 16a1 c23e
000001a0: 65c7 4cbe 29c3 c73e a96d 513d a91c dc3d
000001b0: 389f 133e fd8e 553e 7597 8f3d ff01 69be
000001c0: ab90 12be 4c68 0cbd 6b38 98bc 3b5d 26bd
000001d0: 8a9e f7bd 8c98 c3bd eef3 d73d d5d0 523d
000001e0: ba8f ca3d a959 5d3d 757e a93c 9ddd 51bd
000001f0: abcd 7b3d a688 efbd 3dd7 e03d bac7 a53c
00000200: 73c9 183e 2ed1 5dbe 6814 233e 4ce4 9bbd
00000210: a571 aebd ece6 723e 8193 7bbb 1db9 e63e
00000220: 0d4a 72be 61c5 f83e 8269 0c3e 039d 96bd
00000230: f1f5 49bd 4c70 253e 6264 a6bc 1185 95be
00000240: 5e1d 08be 21b8 55bc d1d1 243e 6372 32bc
00000250: 9bcc 53be 438f e3bd 0dc4 043d d0c3 6cbd
00000260: 0703 363e b6ee be3d d69a 5a3d bc80 4bbc
00000270: 6024 973a 0c70 63be f2b6 e03c 53c7 243d
00000280: dc12 8b3e 02d8 df3e 0448 253e 0c5e f13e
00000290: 025d 963e 06d8 49be 81b4 1b3e a969 a73e
000002a0: 62dc ffbd 023d 8e3e fae0 0c3f c5d0 f83c
000002b0: 6d0c 8f3b 0ab2 753c 954c f53d fe07 2f3e
000002c0: 404b e83d ec32 163d 41e5 24bf 72fa 05bd
000002d0: 7f29 8e3e 0a58 543e 85c2 08bf bb5c e63d
000002e0: 0b59 273f bbe9 4dbd a052 bebd d870 45bd
000002f0: 8da1 123d a352 023e 7e78 563e 7440 5cbe
00000300: 8b95 263e eabb 88be ae98 713e 5bbb 14bd
00000310: a623 b3bd d09f 1e3e 0053 a3bd 92b1 8d3e
00000320: bec4 57be a9d0 843e 7340 4f3e 3a5e bc3d
00000330: 1b05 ad3e 5c02 803e 12f3 ea3d bc91 bcbd
00000340: d68d 28be a503 d8bc 58e0 b0bd f32f 3fbd
00000350: 753a 83bd 77ba e0bc 5456 113e d55d 3b3d
00000360: 39cc 7d3e ae87 12be 89da f33c 5bdf c9bd
00000370: f87c c03d de50 37bd 7ac3 783e 9bf8 a83d
00000380: fcbe 3d3e de55 8cbe edc2 253e 50cc 12be
00000390: 5646 d9bd d116 803e 8094 b4bd a4e1 da3e
000003a0: 2da8 83be 869e df3e f452 0a3e 56cc a4bd
000003b0: f383 16bd 7a79 143e 5b30 82bc c6c9 8ebe
000003c0: 50eb c9bd 9e8c 8d3c 9b59 2d3e 19ee cbbb
000003d0: b13c 60be 4e6e ffbd 45b2 a53c 80e8 4abd
000003e0: 0b06 053e 6f41 9f3d 8e87 7c3c d7eb 2fbd
000003f0: 48ad a5bc da16 4bbe 4937 9cbc 8405 3a3d
-0.2634824 0.30441695 -0.18535091 -0.14556338 -0.021134492 -0.019826941 0.1873834 -0.3163279
0.3343656 -0.2693959 -0.4254824 0.13260862 -0.24364932 -0.18149127 -0.041120023 0.023749642
0.07232488 0.021414094 0.17440589 0.045943778 0.073133014 -0.06444521 -0.034921113 0.024555312
-0.31683102 0.17592447 0.052342102 0.25062585 0.0030929062 -0.062383916 -0.27303565 -0.065329134
0.11773675 -0.2808371 0.1286907 -0.11911273 -0.12114763 0.2969048 0.045518138 0.4577105
-0.15803656 0.40144634 0.06546076 -0.013059954 0.04685192 0.1802686 0.009302313 -0.31396148
-0.16750966 -0.022115499 0.11484431 -0.054669816 -0.19737963 -0.16040961 0.08578499 -0.047826804
0.19357036 0.07653111 0.098206714 0.03138317 0.049121603 -0.21583302 0.041023564 0.09320795
-0.09220847 0.3001181 -0.178831 0.14428568 0.15498438 -0.25311333 -0.01856611 -0.46080092
0.11953162 -0.41539896 -0.02424936 -0.01493655 -0.0053805215 -0.15797868 0.016977677 0.3156132
0.16953617 0.06398421 -0.09999181 0.107797 0.20914088 0.13184607 -0.09154493 0.03696497
-0.17589708 -0.10939005 -0.085968524 0.081425205 -0.036595732 0.18780838 -0.04360343 -0.083594024
0.13681592 -0.22351177 0.16717803 -0.20960447 -0.18710846 0.22165018 -0.056372073 0.38013524
-0.19997938 0.39016083 0.05112997 0.10747654 0.14416206 0.20855327 0.0701131 -0.22754668
-0.14312999 -0.034279153 -0.01858159 -0.040616255 -0.12090786 -0.095505804 0.10544573 0.05146869
0.09890695 0.054040585 0.020690182 -0.051236738 0.061475437 -0.116959855 0.109785534 0.020236839
0.14920597 -0.21661827 0.15925753 -0.076119035 -0.0851777 0.23720902 -0.003838748 0.45063105
-0.2366106 0.48588088 0.13712123 -0.07354166 -0.049306814 0.16156119 -0.020311538 -0.29203084
-0.13292453 -0.013044388 0.16095664 -0.01089153 -0.2068352 -0.111113094 0.03241353 -0.05780393
0.17774592 0.09322874 0.05337032 -0.012420829 0.0011531226 -0.22210711 0.027430985 0.040229153
0.27162826 0.43719488 0.16140753 0.47142065 0.29367834 -0.19711313 0.15205576 0.326978
-0.124932066 0.2778092 0.55030787 0.030372987 0.004365495 0.014996061 0.119774975 0.17092893
0.11342478 0.036669657 -0.64412314 -0.032709546 0.27766034 0.20736709 -0.53421813 0.11248156
0.65370244 -0.05027173 -0.09293103 -0.04820332 0.035798598 0.12726836 0.20944402 -0.21508962
0.16267984 -0.26705867 0.23593399 -0.03631149 -0.08747034 0.15490651 -0.07974815 0.27674538
-0.21071145 0.25940445 0.20239429 0.0919766 0.33792958 0.250018 0.11472143 -0.09207484
-0.16460356 -0.026368925 -0.0863654 -0.046676587 -0.06407634 -0.027432663 0.14193088 0.045743782
0.24784936 -0.1430957 0.029767292 -0.09857055 0.09398836 -0.044754855 0.24293318 0.08250543
0.18529886 -0.2740926 0.1618764 -0.14335752 -0.10609119 0.25017408 -0.088173866 0.42750275
-0.25714245 0.4367563 0.13508207 -0.080467865 -0.03674693 0.14499465 -0.015892198 -0.27888316
-0.098593354 0.017278966 0.16928713 -0.006223452 -0.21898152 -0.12472211 0.020226607 -0.049538136
0.12990586 0.07776152 0.015413178 -0.042949524 -0.020224229 -0.19832936 -0.01906933 0.045415416

context_transformer_0/kq_shared_bottleneck/norm/mul;context_transformer_0/kq_shared_bottleneck/norm/add;context_transformer_0/attention/query/einsum/Einsum;context_transformer_0/attention/query/add;context_transformer_0/attention/value/einsum/Einsum;context_transformer_0/attention/query/add/ReadVariableOp/resource;context_transformer_0/attention/Mul;context_transformer_0/attention/Mul/y f4 [32]
00000000: 57ea b43d 9296 4dbe 3fed 3b3e 4a76 e2bd
00000010: 1720 4fbe 9ccb 9a3c 06db aebd f3b6 44be
00000020: 641b 003e 747c 3fbd b456 62be b2ba 343d
00000030: 9b6e 86be 782b 8cbd bc48 51bd 636e 80bc
00000040: c7bc 733e 69e7 253e 480e 31be 0c33 3ebb
00000050: 60ab 993d 28cf 33be dda8 1bbd a539 8fbe
00000060: e61d 2e3e c972 533e 08e3 523e e495 43be
00000070: fda7 4cbe d2dc 183e c3b7 1abe d18e f2bd
0.08833759 -0.2007697 0.18352221 -0.11057718 -0.20227085 0.018895917 -0.08537869 -0.19210415
0.12510449 -0.046749547 -0.22103387 0.04412336 -0.2625626 -0.068442285 -0.051094756 -0.015677636
0.23802482 0.16201557 -0.17290604 -0.0029022126 0.0750339 -0.17559493 -0.038002837 -0.27973667
0.17003593 0.20649256 0.20594418 -0.19100147 -0.19985957 0.14927986 -0.15109162 -0.11843646

context_transformer_0/kq_shared_bottleneck/norm/mul;context_transformer_0/kq_shared_bottleneck/norm/add;context_transformer_0/attention/query/einsum/Einsum;context_transformer_0/attention/query/add;context_transformer_0/attention/value/einsum/Einsum;context_transformer_0/attention/query/add/ReadVariableOp/resource;context_transformer_0/attention/Mul;context_transformer_0/attention/Mul/y1 f4 [32, 32]
00000000: b5ca 77bd 20f7 c43c 672a af3c dd63 7a3d
00000010: da35 95bc f66b 73bc 333c 14be d6f6 2abd
00000020: 0e2e c6bd 14fa 74bd d879 19bd a5ad acbb
00000030: 0c1f cbbd 7060 86bc 7a0f 29bd 4a49 273c
00000040: aebe cb3b 61f6 c7bc 5e4c 08bd a074 0c3d
00000050: 1475 213c 2403 aa3a 994e 3b3e 144b 13bd
00000060: 883d cfbd 5835 0b3a 6922 5d3d 5d59 2f3e
00000070: bcd7 ed3c a83a 603c 6718 a3bd 0e84 453d
00000080: 2707 b1bd f0f7 963c a797 c1bd e625 b0bc
00000090: bff3 e73c e677 a53c 1ef8 3f3e 5bfe 98bd
000000a0: 0c75 453e 91d7 41bd 0904 17be 103b eebc
000000b0: 330f 2dbd a4b7 7c3d 6b94 b93d 8f11 01bd
000000c0: 4828 c23c 5fd6 613d 9ff7 b43d 3c0f fb3a
000000d0: 7e15 063d 8e36 1bbd 4e1a aebd a9a1 383d
000000e0: fb3b 13bd 5335 7e3d d49e 4ebd 5c56 85bd
000000f0: b8c7 f9bb 7520 a1bc ee45 14bd 3140 c4bc
00000100: 4455 b03d 10f2 9dbb 4f40 c53d 8a5e 543c
00000110: 4db6 c6bc e2fa 7ebb 4056 2fbe 9700 7a3d
00000120: fc63 41be 8228 033d cd1f 313e 2cf6 c13c
00000130: 7f6f 4b3d 3855 5fbd f712 b3bd a3ef 903c
00000140: 0a8d 15bd 0664 8bbd 661f 8fbd dbc0 1cbc
00000150: dfd9 f4bc caa8 9f3c 9379 c83d 80ed 0bbd
00000160: 1faa db3c f42e 64bd 2b34 663d 2c27 3c3d
00000170: f166 67bb 309c 803c 2398 1e3d 2d39 f13c
00000180: 7c6d a1bd 1ebe 1cbd 62e3 9fbd 7143 8d3c
00000190: 30eb 0d3d c887 3eb9 8e21 1c3e bdc6 79bd
000001a0: 7395 1d3e 6492 7fbd 6c42 dbbd e278 1ebd
000001b0: d0e3 6e3c 710d 293d 45b5 a03d bae7 c53a
000001c0: 2a31 283c 67b8 463d 807e 7a3d 8da2 a03a
000001d0: 9c5e a63b 93f1 59bc 7dda f4bd f4a3 523c
000001e0: 507b 7cbb 1cd5 ae3c b7f5 89bd f8bc f9bd
000001f0: b722 25bc 7bc8 73bb f4c7 c13c d1cc 96bc
00000200: a424 23bd 47cc cd3c 758e 99bd 010f 74bc
00000210: 1f4c 083d b4b0 eaba 7c76 403e 36c3 10bd
00000220: 097a 3d3e f12a eebc c872 aebd fe95 69bd
00000230: 2133 9ebd 4fb2 363d e3ea 953d 2314 f2bc
00000240: 140a 033d 8149 313d e0a8 923d 905f 053c
00000250: 63f2 933c 1a8a 503b 5be6 08be ebae 2a3d
00000260: 531d e6bc da30 af3d 29f9 71bd 1f9f b8bd
00000270: 66a6 77bc 0ce0 eabc e295 45bd 3dd0 50bd
00000280: 3191 b43d 3508 f9bc 66fb 33bc 0411 c8bd
00000290: 47d2 40bd 8cd4 583d d81c d33d 0cd4 0d3e
000002a0: 5153 133d 346e db3d 605c 363e 007e 28bd
000002b0: 5ef4 39bc 04b0 a3bd 5a39 f7bd 47af 52bd
000002c0: 22d3 97bd c34e b0bd eeae 043d 4836 d8bd
000002d0: b741 7dbd 6c4f 3fbd 6149 18be 1e73 fabc
000002e0: cdfa cc3d a442 583c 5c2a 213d dac5 24be
000002f0: cfef e0bd 5dc0 51bd 31b3 dd3c 633c 37bb
00000300: 5944 09bd 56e4 81bd 33b1 7bbd 5223 41bd
00000310: 8b98 6d3c 60a8 253d 257e 0b3e fdc3 8dbc
00000320: 1a5d 023e 0750 afbc b861 06bd bbfa 463c
00000330: e294 e63d ee5d 403d 9de7 a83d 0976 33ba
00000340: c95e 203a 627c dd3c 7186 7b3d b17c f1bc
00000350: abaf 88bc a983 8abc 1920 fdbd 0c5a 0d3d
00000360: a245 513d a261 25bc 418b 4bbd d06b 1fbe
00000370: 5316 88bb e9ba 18bc 6dde a23d 2920 29bc
00000380: e42c 0bbd 6deb dd3c 42d5 a1bd 0b03 f83c
00000390: 6fb8 1b3d eaa7 07bb c626 383e 5c32 37bd
000003a0: bf00 193e 433a 2cbd 14ae 98bd 7bbb 41bd
000003b0: 9604 b3bd 77c1 663d b46d cc3d 04b0 c5bc
000003c0: ef46 213d 3e6d 4c3d f4bf 583d 0480 333c
000003d0: a7b6 de3c fbd1 5abb bbdf 16be 4254 133d
000003e0: 0645 11bc 3933 7e3d a45d 8abd aa73 bcbd
000003f0: d6ad 50bc 21aa 8dbc d29f 10bd e639 78bd
-0.06049605 0.02404362 0.021382524 0.061130393 -0.018214155 -0.014857283 -0.14476089 -0.041739307
-0.09676753 -0.059808806 -0.037469715 -0.0052697235 -0.09918031 -0.016403407 -0.041274525 0.010210345
0.006217799 -0.024409475 -0.033275954 0.03429091 0.009854574 0.0012970907 0.18291701 -0.035960272
-0.10119158 0.0005310378 0.053987894 0.17123933 0.029033534 0.01368586 -0.07963639 0.04822164
-0.08643942 0.018428773 -0.094527535 -0.021502446 0.02831447 0.020198774 0.18746993 -0.074703895
0.19282931 -0.04732472 -0.14747633 -0.029080898 -0.042250823 0.06169857 0.090615116 -0.031510886
0.023700848 0.05513608 0.088362925 0.001915432 0.03273534 -0.037893824 -0.08501111 0.045076046
-0.035945874 0.062062573 -0.05044444 -0.06510612 -0.0076226853 -0.019668797 -0.036199503 -0.02395639
0.08610013 -0.004820116 0.096314065 0.012961993 -0.02425685 -0.0038906862 -0.17122746 0.06103572
-0.18885797 0.032021053 0.17297287 0.023676954 0.049666878 -0.05452463 -0.08743852 0.017692393
-0.03651146 -0.06806187 -0.06988411 -0.009567465 -0.029889045 0.019489665 0.097888134 -0.034162045
0.026814518 -0.05570884 0.056202095 0.045935795 -0.003530916 0.015699476 0.038719308 0.029446209
-0.078822106 -0.038267247 -0.07807042 0.017244073 0.03464812 -0.00018170394 0.15247175 -0.060980547
0.15389042 -0.06239547 -0.10706028 -0.0386895 0.014580682 0.041272584 0.078470744 0.0015098967
0.010265628 0.048515704 0.061155796 0.0012255475 0.0050771963 -0.013302225 -0.11955736 0.012856472
-0.0038525648 0.021341853 -0.067363195 -0.12194246 -0.010079077 -0.0037198353 0.023654915 -0.018408211
-0.039829865 0.025121821 -0.07497875 -0.014896155 0.03327572 -0.0017905445 0.18795198 -0.035342418
0.18503584 -0.02907321 -0.085179865 -0.05702781 -0.07724596 0.044603642 0.07320192 -0.029550618
0.031992033 0.04328299 0.071611166 0.00814046 0.018059915 0.0031820596 -0.13369124 0.04167072
-0.028090155 0.085542396 -0.05907551 -0.09014725 -0.015115356 -0.028671287 -0.048238643 -0.05097984
0.088167556 -0.030399421 -0.010985231 -0.097688705 -0.047075536 0.052937075 0.10308236 0.1385042
0.03596813 0.10714379 0.17808676 -0.041135788 -0.011349766 -0.07992557 -0.12071486 -0.05143669
-0.07413317 -0.086087726 0.03239339 -0.10557228 -0.06183025 -0.046706602 -0.14871742 -0.03057247
0.10008774 0.013199482 0.039347038 -0.160911 -0.1098324 -0.051208843 0.027062984 -0.0027959577
-0.033512447 -0.0634238 -0.061448287 -0.047152825 0.014501701 0.040443778 0.13622339 -0.017305369
0.12730828 -0.021400465 -0.032808036 0.01214474 0.11258866 0.04696458 0.08247302 -0.0006845897
0.000611764 0.02703685 0.06140751 -0.029478403 -0.016685328 -0.016908484 -0.12359638 0.034509704
0.051091798 -0.010094078 -0.04969335 -0.15568471 -0.004153052 -0.009321907 0.079525806 -0.010322609
-0.033978358 0.027089799 -0.07902004 0.030274889 0.038017686 -0.002069945 0.17983541 -0.04472576
0.14941691 -0.04204775 -0.07455078 -0.047297936 -0.08741109 0.056336846 0.09981862 -0.024131782
0.03937429 0.04990887 0.052917436 0.010955814 0.027186705 -0.0033389318 -0.14733784 0.035969026
-0.008866554 0.06206057 -0.06756142 -0.09201749 -0.012736758 -0.017293038 -0.035308667 -0.06060209

context_transformer_0/ffn_layer_0/intermediate_dense/einsum/Einsum;context_transformer_0/ffn_layer_0/intermediate_dense/Relu;context_transformer_0/ffn_layer_0/intermediate_dense/add f4 [32]
00000000: 9eb3 a0be 5988 14be a81b 66be 9902 76be
00000010: 0634 89be 12ea 9ebe 5fff 1dbe f28f 3ebd
00000020: a3d3 8e3d ea27 cebd ce32 0fbe d338 63be
00000030: 1d3a 6ebe 07eb 2fbe bb57 55be 613a 71be
00000040: 8f7b 15be e1ab 8abe 2a2c 8dbe f816 54be
00000050: 4700 9cbe 5a40 8ebb 1577 60be 3846 5dbe
00000060: e56c a1bd cb74 cdbe 748b 5ebe fbcb 52be
00000070: 1b3a 4dbe c6fc 8bbe 4538 98bc c696 72be
-0.31387037 -0.14505138 -0.22471488 -0.24024428 -0.26797503 -0.31037956 -0.15429448 -0.046523996
0.0697396 -0.10066207 -0.13984224 -0.22189645 -0.23264356 -0.171795 -0.20834248 -0.23557426
-0.14597915 -0.27084258 -0.27572757 -0.20711887 -0.30468962 -0.0043411674 -0.21920426 -0.21608818
-0.07882098 -0.40128168 -0.21732885 -0.20585625 -0.20041697 -0.27341288 -0.018581519 -0.23690328

context_transformer_0/attention/norm/mul;context_transformer_0/attention/norm/add;context_transformer_0/ffn_layer_0/intermediate_dense/einsum/Einsum;context_transformer_0/ffn_layer_0/intermediate_dense/Relu;context_transformer_0/ffn_layer_0/intermediate_dense/add f4 [32, 32]
00000000: 6863 ddbe 7811 96bd fd2b 543d 6fb4 293e
00000010: f9b3 fa3d e262 7b3d d377 59be 3309 98bd
00000020: 2173 8abd b109 943d b7c8 5a3e 6c13 5abc
00000030: 461c 493e 8a2f b43e 8640 133f 2d8a 02bd
00000040: e126 e33d bf11 36be 268b bcbe 2cf0 f9bd
00000050: a8c9 98bd 8c0e aa3e 1615 ecbe 440f da3e
00000060: 55a0 ea3c 411e f23d 3fbb 4dbe f5ff 6f3e
00000070: a1fe e2bd ea16 74be b056 08be 38ac 323d
00000080: fec9 b63d 7d93 933d b14c 90be 91aa debd
00000090: 136f 1f3e 6529 9fbe 8ce9 f83e c03b 213e
000000a0: 000d 603e bdeb aebd 3be7 3f3d 1caa 033e
000000b0: b7d3 10be 272c 9b3d 2698 b8bd 9cf3 6c3e
000000c0: 90fe 4dbc 334c 1fbd 2f76 abbd a0df 15be
000000d0: 215e 163e 58a3 d5bd a1aa 823d 49a4 babe
000000e0: 1e15 843d c26d 10bf ccf5 743e 6601 96bc
000000f0: 6fc5 fd3c 37b5 57bd 63d4 463e 41f3 2f3e
00000100: a110 8bbe b104 c3be e48e acbe a218 31be
00000110: 83ef 68bc 5586 5fbe 3d1a 35be e294 d8bc
00000120: ad88 acbe 54c2 913e ad0d 133e 2328 c3bd
00000130: 692c 2bbc 8ed5 6f3e 8773 563c a8db 3ebe
00000140: 013b fdbe 1f83 4f3e 7590 bfbe c005 53bc
00000150: 78c9 323b 24b0 10bd f369 2dbe 6e7e e33c
00000160: 2a50 c7bd 862a 91be 8620 613e 8706 0c3d
00000170: f92d 803e 0c59 8bbe 7ed4 f9bc b238 92be
00000180: 5c7c 9fbd e61c 63be 4ac3 d3ba 10c4 ad3e
00000190: b096 cd3c fe7a dabd 3915 eb3b 16ed 02be
000001a0: 3272 05bf 6fce 9a3d e4aa 02bd 934d a83d
000001b0: 4002 3b3e bc0c f33e 3877 063e 9733 5dbe
000001c0: 5ddf 29be d6fd f33d b193 5cbd 8db7 6cbd
000001d0: 62b4 9fbd 034d 223e c28f 903c f00d c7be
000001e0: b898 7dbe 07ec 32be 94f1 5c3e 71de d63e
000001f0: 353d 023f 6fa2 d23c cdef b6bd 4ad3 b53d
00000200: 2d67 b1be e70b a63e e06c 07be 2645 d43e
00000210: 52cb 8fbe 2512 313e 6a29 4fbd 55f8 34bd
00000220: 3999 ab3e 3f55 043e b440 953e 5eee 01be
00000230: 577e 10be ef96 eebd 6caf 6b3e b36b a1be
00000240: 9988 273e 858f 05be ee70 06be 79ef 403e
00000250: 36b2 6d3e e529 8abe 00f3 20be cb72 30bd
00000260: 6023 66be d6c0 123e 843b f33d e4bc 3abe
00000270: 6042 2fbe 5f6f 9dbd 4065 8e3c f7bf 2bbc
00000280: 06d6 113e 368b 60bc 5612 583e 4d16 973e
00000290: 4763 673e 30d5 c4be 122f 053e 038f fcbd
000002a0: c184 aebe 7732 e13d 2322 cd3d 3b73 05bd
000002b0: 9c8a a83e 3279 053f 7b19 703e 57e7 5bbe
000002c0: f960 94bd fbde 08bd 6139 483e e1d9 50bb
000002d0: ad3d bd3e 956b d83e bf4f 99be 6709 adbd
000002e0: 0b76 5abe 7626 b2bd 66a9 803e 2ef1 063e
000002f0: c38a 0d3e 0c63 a93e 9828 503d 3f8f 003e
00000300: 3f36 47be eec5 36be 18b7 c6be 99d8 c53d
00000310: 1b0f 0c3e 25fb 66be aca8 233e cb6b 3b3e
00000320: 9d96 473e 0a4b 803e 02df 19be a22f 2dbd
00000330: 4f0f 1cbe 373a b73c 40a2 343e 761c 293e
00000340: ce12 1fbe e032 143e 8fc4 4abe ef57 7fbe
00000350: 2b54 c03e c4a2 293e eeee d4ba 2101 31be
00000360: 468c d73d 691f e13d b777 2abd ebee 2a3e
00000370: 1508 b63e 5a20 fb3e 712e bd3d 21ba 8e3d
00000380: 6202 23bd beb9 dbbd 250f ee3d 82f0 97bb
00000390: 4c3f 3e3e 462b 89be ed67 4a3e 116c 5a3c
000003a0: ae75 25bd 0094 59bd 0890 47be 8a01 26be
000003b0: adad ce3d 7433 a03b 33cd 3f3e 5e47 dbbe
000003c0: 7cf9 dc3c 8dfb 05be 3827 46be 71fe dcbd
000003d0: 3a07 a13e b604 8abe 2dd8 d0bc 88fc 2d3e
000003e0: 60b6 54be 0b54 3dbe f8fe 8a3d 6825 24be
000003f0: a4ff e73e 962b c33e 9db3 323e 3310 0b3f
-0.43239903 -0.07327551 0.051799763 0.16572736 0.12241358 0.0613736 -0.21237116 -0.074236296
-0.0676024 0.07228411 0.21365629 -0.013310295 0.19639692 0.3519252 0.5752033 -0.031870056
0.110914 -0.17780207 -0.36824912 -0.12204012 -0.07460338 0.33214223 -0.46109837 0.42589772
0.028640905 0.11822177 -0.2009096 0.23437484 -0.11083723 -0.23836866 -0.13314319 0.04362127
0.08925246 0.072058655 -0.2818351 -0.10872377 0.15569715 -0.3108627 0.48615682 0.15745449
0.21879959 -0.08541057 0.046851378 0.1285786 -0.14143263 0.07576781 -0.09013395 0.23139805
-0.012572899 -0.03889103 -0.08372151 -0.14636087 0.14684345 -0.10431546 0.06380201 -0.36453465
0.0644934 -0.5641748 0.23921889 -0.018311214 0.030977933 -0.052663054 0.19416957 0.17182638
-0.27161124 -0.38089517 -0.33702767 -0.17294553 -0.01421726 -0.21828587 -0.1768579 -0.02643818
-0.33698025 0.28468573 0.14360686 -0.0952914 -0.0104476 0.23421308 0.013089067 -0.1863848
-0.4945908 0.20264862 -0.374149 -0.012879789 0.002728073 -0.03532423 -0.16934948 0.027770247
-0.09732087 -0.28352755 0.21985063 0.034185912 0.25035074 -0.27216375 -0.030496832 -0.2855888
-0.077873915 -0.22178993 -0.0016156223 0.33938646 0.025096267 -0.1066799 0.007174161 -0.12785754
-0.52127373 0.07558905 -0.031901255 0.08217921 0.18262577 0.47470653 0.13131416 -0.21601711
-0.16589113 0.1191365 -0.053851787 -0.057792235 -0.07798077 0.1584969 0.017646674 -0.3887782
-0.24765289 -0.1747285 0.2157653 0.41966584 0.50874645 0.02571222 -0.08932457 0.08878191
-0.3464903 0.32430956 -0.13225126 0.41459006 -0.2808481 0.17292078 -0.050576605 -0.04418214
0.33515337 0.12923144 0.29150927 -0.12688586 -0.14110695 -0.11649882 0.23016137 -0.3152748
0.16360702 -0.1304303 -0.13129017 0.18841352 0.23212513 -0.26985088 -0.15717697 -0.043078225
-0.22474432 0.14331374 0.11876586 -0.18236119 -0.17115164 -0.07687258 0.017382264 -0.01048278
0.142418 -0.0137050655 0.21100745 0.29509202 0.22596465 -0.384439 0.13006237 -0.12331965
-0.34085658 0.109959535 0.10016277 -0.032580595 0.3291825 0.52138054 0.2344722 -0.21474968
-0.072450586 -0.033415776 0.19553138 -0.0031868147 0.36961117 0.4226958 -0.29943654 -0.08449059
-0.21334092 -0.08698742 0.2512924 0.1317794 0.13822465 0.3308338 0.050819963 0.12554644
-0.19454287 -0.17848942 -0.38811564 0.09660453 0.13677637 -0.22556742 0.15982312 0.18302839
0.19491048 0.2505725 -0.15026477 -0.042281754 -0.15240215 0.022366626 0.17640018 0.16514763
-0.15534517 0.14472532 -0.19801544 -0.24935888 0.37564215 0.16565996 -0.0016245523 -0.17285587
0.10524802 0.10992319 -0.041618075 0.16692702 0.3555304 0.4904812 0.092373736 0.06969095
-0.039797194 -0.10728787 0.11623982 -0.004636825 0.18578833 -0.26790828 0.19766207 0.013331429
-0.04039543 -0.05311966 -0.19488537 -0.16211525 0.1009172 0.004888946 0.18730621 -0.42827886
0.026974432 -0.1308424 -0.19350898 -0.10790718 0.31450826 -0.2695672 -0.025493706 0.16990864
-0.20772696 -0.18489091 0.06786913 -0.16029894 0.45312226 0.3811919 0.1745133 0.54321593

context_transformer_0/ffn_layer_1/intermediate_dense/einsum/Einsum;context_transformer_0/ffn_layer_1/intermediate_dense/Relu;context_transformer_0/ffn_layer_1/intermediate_dense/add f4 [32]
00000000: 9d96 acbd b52c 90be 9561 a4bd a46d 4ebe
00000010: d6ac 94be 345a 2bbd 6431 97be a0b2 15be
00000020: b705 57be 2a5a a9be b67b 70be 8dd9 33be
00000030: 5e06 88be 2110 8bbd 8c5a 30be 17c5 4fbe
00000040: a330 0cbe 130a e63c ebd5 74bd e339 81be
00000050: 0bc1 d7bd 0ff4 79be 1b48 92bc 733b a7be
00000060: a95b a2be 61ff 07bb 6734 2dbc 265b 8ebe
00000070: 3dd1 f7bd ea01 71be 886e 54be ef5c 17bd
-0.08427165 -0.2815911 -0.08026425 -0.20159012 -0.29038113 -0.04183407 -0.2952987 -0.14618921
-0.20998274 -0.33076602 -0.23484692 -0.17563458 -0.26567358 -0.06790186 -0.17222041 -0.20290028
-0.13690428 0.028080976 -0.05977432 -0.25239477 -0.10534867 -0.24409507 -0.017856648 -0.32662544
-0.31710556 -0.0020751583 -0.010571576 -0.27803916 -0.12100456 -0.23535886 -0.2074529 -0.036953863

context_transformer_0/ffn_layer_0/norm/mul;context_transformer_0/ffn_layer_0/norm/add;context_transformer_0/ffn_layer_1/intermediate_dense/einsum/Einsum;context_transformer_0/ffn_layer_1/intermediate_dense/Relu;context_transformer_0/ffn_layer_1/intermediate_dense/add f4 [32, 32]
00000000: 6a92 dfbe 4279 08be 9791 bcbd 7f93 853e
00000010: 5e8b c83d 9f5a 98be 4d82 703b 732a 43bd
00000020: d476 963e 4d16 a2bc 715d 9dbe 2aa5 66bc
00000030: 1750 21be 6ee6 2d3c 923c aa3e e914 e8bd
00000040: 9b66 80be 5122 9dbc bd52 e0bd 4e02 0dbe
00000050: 09f5 653e 2bff 1e3e 886e 48be 709a 46be
00000060: be35 08bf bb30 87be b2b3 a33d 118f b93e
00000070: a67a 96bd 76ae 2abd d30f b6bc c2ed 9cbd
00000080: 770e d2be d225 f6bd d97b 043e e2ff 28be
00000090: 43c7 38be ad14 bbbe 9902 d93e 6524 733d
000000a0: f004 58bb f36d 38bd a1b8 d83c 42a1 873e
000000b0: 3d2c 873b a781 dcbc ff41 a33c f961 86be
000000c0: d3c3 933d 8a7e 3dbe 8947 e6be 43a2 533d
000000d0: 5b34 343e ea75 943d c33f 2bbe 049e 9dbd
000000e0: 2730 09be 01db 4d3d da46 f0bd a274 fdbd
000000f0: 122e 113d c27b c63d 5d7f 14bd 867f 893c
00000100: 4ec2 76bc 92e9 cc3c 3791 24bb c76c 7d3b
00000110: 2b12 c6bb dc4d 203c f463 933a e2a4 173a
00000120: a19c 63bc c324 c73c 702d cebc f66d a33c
00000130: 2f2d be3a 655f 48bb fc92 cfbb 37c2 90bc
00000140: 8095 06bb d76f 893c 0f65 71bc 69fa 413b
00000150: ae10 3e3c 6f67 cb3c e9b0 bebc 7a0f d6bc
00000160: e795 6e3b 591f b3bc 9c2d d8bb 9b36 38bc
00000170: 87d3 953c 6c6d 013c 27e1 983c e495 343c
00000180: 50fc 32be a422 9cbe c294 9d3d 1728 f23d
00000190: eccf 1e3e e200 07bd 6392 12be 27e4 e8bd
000001a0: 03e3 ae3d 56cd 643e b350 113d 0f89 15bd
000001b0: 8602 22be f205 8ebe ee8a 01be 0c53 bd3c
000001c0: 4fcd 23be c998 f53d 79cd 443d d7d4 b03d
000001d0: a076 033f 6100 92bc b323 99bc 3146 003e
000001e0: 00a4 a7be dacc bfbe 67d4 83bc d9b3 9bbd
000001f0: 1345 253f 4f43 35bd fc0d 4f3b be11 3a3d
00000200: 9571 5abe 0833 7bbe 9089 e93d 8004 8cbd
00000210: adf7 a0bd 55f6 1bbd 4cd2 fd3d 9782 15be
00000220: 06db 5c3e c6ca bc3d fb5e 09be 9799 81bd
00000230: 21cd 70bd e577 373d 84e3 423e 9295 4ebe
00000240: 9c4d 683e e7ea f13d ed06 883e a8be 64be
00000250: 51bd 1cbc 4e0f 68be e2d4 36be ade6 36be
00000260: 3a5f 3c3c a661 c23d c113 5c3e 0117 7c3e
00000270: f244 723e c073 60bb c66b 35be 015f e5bd
00000280: 15a1 85bc 2cd8 b5be b5dc d6bd 2365 413d
00000290: 4f6a e83d a7ab 623e 053d c93d fbc0 a93d
000002a0: d666 4ebe 2b5d 7c3e a4f5 bcbd b494 57be
000002b0: 3c3a e83d c99c f83e 725b 8fbd 65d7 ca3c
000002c0: 9ab5 b8be 13c7 e13d c8aa 8cbe cb92 93bc
000002d0: d9d3 823e aa32 c13c 2ebb 11be 8133 dd3d
000002e0: 8161 6f3e 049b 77be 5749 693d 532a aabc
000002f0: 3cdc 07be a070 78bd 1a77 58bc f876 1fbe
00000300: 73f3 02be 2f9f 65bd 9e7b 153f ca43 7b3d
00000310: 07c4 b33c 22fc db3d 6dd0 7fbd 4dfe 08bd
00000320: a90b c5bd d897 edbc 109b 9cbb 00b3 833d
00000330: b511 3a3d 01ec 323e 802f 213e 08ea 22be
00000340: 13f4 9fbe 5af6 25be 2e14 ac3d 6417 21be
00000350: ceef 7b3d 12de 8b3e d40b e13d 0a4c 4dbd
00000360: a7bc a43c 0482 3e3d 1722 b5be 8b76 f73d
00000370: 4cc8 afbe 36d4 76bc 9968 ccbb 27e6 1bbd
00000380: 259c b5bc 7276 a3bc a367 50bb 3107 143d
00000390: 7a3e 073d c2f5 fbbc dbdf 97bb afe0 8a3b
000003a0: ca0f 373c bb5e 243d fd96 72bc 1694 5cbc
000003b0: fa58 41bd 6954 873c df10 d3bc c98d d7bb
000003c0: 4e96 aa3c 21f6 e0bb e3ea 44bd 5595 463b
000003d0: 746e 133c 118e 3b3d a07a 96bc f958 29bd
000003e0: 5759 533b 3870 b5bc 6fca ac3c b746 0c3c
000003f0: a831 bb3c 99a1 78bc 4474 dcbb 1fdf b93c
-0.43666393 -0.13327506 -0.092074566 0.26089093 0.09792207 -0.29756638 0.003669876 -0.047647905
0.29387534 -0.019786024 -0.30735353 -0.014077464 -0.15753208 0.010614021 0.33249336 -0.11332113
-0.25078282 -0.019181402 -0.10953281 -0.1377041 0.22456755 0.15527026 -0.19573414 -0.1939485
-0.53207004 -0.26404366 0.079932585 0.36241964 -0.07347612 -0.041670285 -0.022224342 -0.07662536
-0.4102666 -0.120189324 0.12937869 -0.16503862 -0.18044762 -0.36539212 0.42384794 0.05936088
-0.0032961927 -0.04502673 0.026455225 0.26490217 0.0041251467 -0.026917292 0.01992893 -0.26246622
0.07215085 -0.18505302 -0.44976452 0.051668417 0.17598097 0.07249053 -0.16723542 -0.07696155
-0.13397275 0.050257687 -0.11732264 -0.123757616 0.035444327 0.09691574 -0.036254276 0.01678444
-0.015060974 0.025013719 -0.002511097 0.0038669573 -0.0060446463 0.009784188 0.0011244998 0.00057847623
-0.013892324 0.024309522 -0.02516815 0.019949894 0.0014509315 -0.0030574438 -0.0063346606 -0.017670734
-0.0020535886 0.016776962 -0.014733567 0.002959872 0.011600656 0.024829594 -0.023277717 -0.026130427
0.0036405267 -0.021865534 -0.006597234 -0.011243488 0.01828934 0.007899623 0.018662049 0.011022065
-0.17479062 -0.3049518 0.07694389 0.11824053 0.15509003 -0.032959826 -0.14313655 -0.113716416
0.08539393 0.22343954 0.03547735 -0.036507662 -0.15821275 -0.2773891 -0.12650654 0.023110889
-0.15996288 0.11992032 0.048047516 0.08634346 0.5135288 -0.017822446 -0.01869378 0.12526776
-0.3274231 -0.37460977 -0.016092492 -0.076026626 0.64558524 -0.044253644 0.0031594029 0.045427077
-0.2133239 -0.24531186 0.11403191 -0.06836796 -0.078597404 -0.038076717 0.123936266 -0.14600597
0.21567926 0.092183635 -0.13415138 -0.06328123 -0.058789376 0.044792075 0.19032103 -0.20174244
0.22685856 0.11812382 0.26567784 -0.22338355 -0.009566621 -0.22662088 -0.17854646 -0.17861433
0.011497313 0.09491281 0.2149191 0.2461815 0.23659113 -0.003424868 -0.17716894 -0.11199761
-0.016312161 -0.3551649 -0.10491315 0.047215592 0.11348402 0.22135793 0.09826092 0.08288761
-0.20156416 0.24644916 -0.0922654 -0.2105282 0.11339232 0.48557118 -0.06999864 0.024760911
-0.3607605 0.110242985 -0.27474046 -0.018014332 0.25552252 0.023583729 -0.1423156 0.10800839
0.23377039 -0.24180228 0.056954708 -0.020772135 -0.13267606 -0.060654283 -0.01321199 -0.15572727
-0.12788181 -0.056060012 0.5839175 0.061343946 0.021944059 0.1074145 -0.06245463 -0.033445645
-0.096213646 -0.029003069 -0.004779227 0.06430626 0.045427043 0.17472841 0.15740776 -0.15909588
-0.312409 -0.16207257 0.084022865 -0.15731579 0.061507992 0.27317864 0.10988584 -0.050121345
0.020109488 0.04651071 -0.3537757 0.12083157 -0.34332502 -0.0150652435 -0.006238055 -0.038061287
-0.022169182 -0.01995394 -0.0031800054 0.03613967 0.033018567 -0.030756835 -0.00463484 0.00423821
0.011173198 0.040129405 -0.014806506 -0.013463041 -0.047203995 0.016519742 -0.02576488 -0.0065781814
0.020823624 -0.0068652784 -0.048075568 0.0030301411 0.008998502 0.045789782 -0.018369019 -0.041344617
0.0032249296 -0.022148237 0.021092622 0.008561782 0.022850826 -0.015175247 -0.006727727 0.0226894

context_transformer_0/ffn_layer_2/intermediate_dense/einsum/Einsum;context_transformer_0/ffn_layer_2/intermediate_dense/Relu;context_transformer_0/ffn_layer_2/intermediate_dense/add f4 [32]
00000000: d245 9bbe 1cd7 c7bd 9f35 0bbe 29c9 f5be
00000010: 94cc c1bd 34ce b3be 0aa7 47be 1bb9 93be
00000020: 6ffa 20be 9809 a93c c1a1 efbd 1428 25be
00000030: 584b 213d dfb5 c9be 1508 ecbd 72d6 8abe
00000040: c4e6 28bd 42fc 78bd f443 43be fd46 9cbd
00000050: 14b8 89bc 195f 3a3d cdd2 fdbe cf6f 29be
00000060: 8249 d9bd a2c8 78bd 371a 1bbe 5c94 cebc
00000070: 83b3 54be 94ae a3bd 6ed2 c0bd 47c8 14bd
-0.30326706 -0.09757826 -0.13594674 -0.48005036 -0.09462848 -0.35118258 -0.19497314 -0.28852162
-0.15720533 0.020634457 -0.11700774 -0.1612857 0.039378494 -0.3939657 -0.11524979 -0.27116734
-0.0412357 -0.060787447 -0.19068891 -0.076307274 -0.016811408 0.04550085 -0.4957489 -0.16546558
-0.10609724 -0.060738213 -0.15146719 -0.025217228 -0.20771603 -0.079922825 -0.09415136 -0.03632381

context_transformer_0/ffn_layer_1/norm/mul;context_transformer_0/ffn_layer_1/norm/add;context_transformer_0/ffn_layer_2/intermediate_dense/einsum/Einsum;context_transformer_0/ffn_layer_2/intermediate_dense/Relu;context_transformer_0/ffn_layer_2/intermediate_dense/add f4 [32, 32]
00000000: 9cb6 debd 4628 d1bb 1be6 10bd 6997 363d
00000010: 0c41 893e 1868 c5bd 5390 453d 40de 80bd
00000020: 6c53 983c c06a 903e be9f 9f3e 01b9 113d
00000030: 26b1 983d 419d 613e 4257 d33c 06da 363e
00000040: 2c56 6bbe bc60 ce3c 5608 46be 0949 6a3d
00000050: 68c2 36be 0171 cd3d 2539 9dbc 59ef 763e
00000060: 2408 01bc e344 4bbd ac93 843d ad89 ddbd
00000070: 6a6b 62bc 44b6 2d3e ff1a 003c ec12 c03d
00000080: 0206 f53b 4ef9 923b 7b0f 76bc fbaa 9bbb
00000090: 9f79 94bc 20e0 89ba 89c8 033b 7c5b dfbb
000000a0: 4d87 193c 0994 ed3b 24d6 7fbb 6dd4 1b3c
000000b0: d9c7 ddbb 13ee 53bc 737b 2dbc 7445 e13b
000000c0: d314 efb9 72a1 523a de9c 31bc b219 2abb
000000d0: 8d7c 633c 118d b73c 96a0 893a 0e7d 473c
000000e0: 4aa6 a93b 411e a3ba fd1d cbbc 4c85 e33c
000000f0: 002b eebb b08d caba fab4 b63b 9bb5 753c
00000100: 35bf b73c 5728 f73d 54f5 343e 9bce 873d
00000110: 3f9e c0bd 055e 253d dec3 693d d79f 303d
00000120: 1525 4fbd 7643 3cbd ecb2 003e eaaa 363e
00000130: e0f2 81be bb01 87be 6251 dbbc 44ba a2bd
00000140: c655 073d 12c4 24be cd03 9bbc a7bc b63b
00000150: dbd5 7abd 0d70 fcbd aaf0 203d 0f53 11be
00000160: 2727 b73d 9d81 573e d53a cd3c 22ce 573e
00000170: 3a71 d4bd 0744 133e 5194 bd3d 45c0 c63e
00000180: 92ad 6bbe ad12 8b3d eaf9 1cbe 710c 05be
00000190: 8dce dcbc bcff b83e bbb1 2d3e 568f 62be
000001a0: 7f1a e43d 1f8b 19be 675b a2bc 6e00 39be
000001b0: f745 fcbd 5dd7 de3b ed59 9f3e 5f2a 643e
000001c0: 564b e73d 7007 a03d 139c 36be 092c b13d
000001d0: 9ea7 013e edfa bdbd d42d 3ebb d23f 553e
000001e0: af22 003d 65f5 b3be 52c2 c83c c0d7 e2be
000001f0: 9d06 a73d 195e 863e 954e d8bd 4d96 d3bc
00000200: 1352 883d dae8 993d 93ae 28bd c932 0cbe
00000210: 2778 203c 1b19 d23e 46dc 773d f5fe 8cbe
00000220: 1c50 ae3d ff43 dcbc 07ed e73c af6f 2bbe
00000230: 21d7 92bc 7633 083c 9225 a33d 4b38 f1bd
00000240: 32dd 633c 086e 3ebe 3175 933e f43e 623d
00000250: 1a5b 98bd c297 fe3d ba46 043d 664b 053e
00000260: 3cb4 fb3d b040 04be 2b03 783e 6ead 3abe
00000270: 2401 203d d650 f4bd b85d 1cbe 9b38 a63e
00000280: 7f49 15be 715e e13d b8fe e4bd 2456 b53d
00000290: d1ba 2a3e 8e36 aa3e f0de aa3d ddbb 98bd
000002a0: 5536 b43d ee19 81be 2073 f23d 39d2 18bd
000002b0: bac0 9bbe f128 803d c83e 94be 4fb1 d53c
000002c0: 6ed7 34be ac4c 1cbe 0d29 dbbd 919a 373e
000002d0: e778 d2bd e1f1 2d3d 6f67 a9bd cc3a 4fbe
000002e0: 5e7b c6bd 91bb b5be 62d3 6e3e 388a 57bd
000002f0: a83b e4bd ef68 023c bc6a 083e 636f 0b3c
00000300: 9faf 30bd 74f3 45be cdd7 14bd d1a0 0b3d
00000310: bcb3 673e 771a 2bbe 10c3 703e 014b 79bd
00000320: 354f 4cbe f66d 48bc b37e 85be 3408 d7bc
00000330: 0613 553e 1ac9 ccbd 07f6 6dbc 8ed8 a2bd
00000340: 01ef 83bd 586d 63be 1662 eebc 22a7 58be
00000350: 8dce 693e 65f6 ba3d c291 403e ecda 213e
00000360: 7441 163e bde4 c13d 3632 66be e0d0 dbbd
00000370: 209c 573d c7f2 90be cc0c 11bd 0f89 253c
00000380: 154e debe a251 103d 9941 6b3d ed05 873e
00000390: 723b a4be 8db0 1ebe 8cc9 16be c2cd b2bd
000003a0: d8b7 6f3e ab6a 90bd 2a45 a4bd 1391 d63e
000003b0: 3e3e 28be 824b 0d3e 3045 edbd 01eb 283d
000003c0: 6188 793d 8019 b43d fdb7 53be 5599 9fbe
000003d0: 5bd9 793d a20d de3d f506 87bd fa30 59be
000003e0: 50a9 03be c010 743d 7b2c 06be d4e0 bcbd
000003f0: ef64 9dbd f3e6 373d c683 9abe 19c7 48be
-0.10874674 -0.006382975 -0.035375696 0.04457799 0.2680744 -0.09638995 0.04823334 -0.06292391
0.018594466 0.28206444 0.3117656 0.035576824 0.074556634 0.22032644 0.025798444 0.17856607
-0.2298209 0.02519261 -0.19339117 0.057198558 -0.17847598 0.100313194 -0.019192288 0.24114741
-0.007875476 -0.049626242 0.06473479 -0.10817275 -0.013819555 0.1696406 0.007818936 0.09378609
0.007477523 0.004485286 -0.015018339 -0.004750607 -0.0181244 -0.0010519065 0.0020108542 -0.0068163257
0.009370637 0.007250313 -0.003903755 0.0095110955 -0.0067682085 -0.012935179 -0.010588515 0.0068747345
-0.00045601148 0.00080349215 -0.010840623 -0.0025955257 0.013884676 0.022406133 0.0010500129 0.012175811
0.005177294 -0.001244493 -0.024794573 0.027773522 -0.0072683096 -0.0015453603 0.0055757733 0.014996911
0.022430042 0.12068241 0.1767171 0.06631204 -0.09405183 0.040372867 0.05707156 0.043121185
-0.050572474 -0.045962773 0.12568253 0.17838636 -0.2538061 -0.26368508 -0.026772205 -0.079456836
0.033040784 -0.1609042 -0.01892271 0.0055766883 -0.061239105 -0.123260595 0.039292015 -0.1419184
0.089430146 0.21045537 0.025052467 0.21074727 -0.10373159 0.14381419 0.09256805 0.38818565
-0.2301543 0.067906715 -0.1532971 -0.12993027 -0.02695396 0.3613261 0.1696233 -0.22124991
0.11137866 -0.14994477 -0.019818975 -0.1806657 -0.12318032 0.0068005756 0.31123295 0.22281788
0.11293666 0.078139186 -0.17832975 0.08650977 0.12661597 -0.09276376 -0.0029019015 0.20825127
0.031283077 -0.3514816 0.024506722 -0.4430523 0.08155558 0.26243666 -0.10561863 -0.025828505
0.066562794 0.07515116 -0.041182112 -0.13691248 0.009794272 0.4103478 0.060512803 -0.27538267
0.085113734 -0.026887892 0.028311266 -0.16741823 -0.017924847 0.0083130505 0.0796615 -0.11778315
0.013907718 -0.18596661 0.28800347 0.055235818 -0.07439251 0.12431289 0.032294013 0.13017043
0.12290236 -0.12915301 0.24219958 -0.1823022 0.039063588 -0.11929481 -0.15270126 0.32465062
-0.14578818 0.110043414 -0.11181396 0.08854321 0.16672827 0.33244747 0.08343303 -0.07457707
0.087994255 -0.25215095 0.118383646 -0.03730986 -0.30420476 0.06257809 -0.28954148 0.026085524
-0.17660305 -0.15263623 -0.10701189 0.17930056 -0.102769665 0.042467 -0.082716815 -0.20237273
-0.09691499 -0.35494664 0.23322824 -0.05262205 -0.11144191 0.007959588 0.13321966 0.008510443
-0.043136235 -0.19331151 -0.036338616 0.034088913 0.22627157 -0.16709314 0.2351191 -0.060862545
-0.1995209 -0.012233248 -0.26073226 -0.026249029 0.20808038 -0.099992946 -0.0145239895 -0.07951461
-0.06442071 -0.2220968 -0.029099505 -0.21157506 0.22832699 0.09129027 0.18805602 0.15806168
0.14673406 0.094674565 -0.22480091 -0.10733199 0.052639127 -0.28310224 -0.035412595 0.010103478
-0.43418947 0.0352341 0.057435606 0.2637171 -0.32076603 -0.15497036 -0.14725322 -0.087306514
0.23409975 -0.07051595 -0.080210045 0.41907558 -0.16429994 0.13798335 -0.11585462 0.041239742
0.060921077 0.08793926 -0.20675655 -0.3117167 0.060998302 0.10842444 -0.06593124 -0.2121009
-0.12857556 0.059586287 -0.13102905 -0.0922257 -0.07685267 0.044897985 -0.3017866 -0.196072

context_transformer_0/ffn_layer_3/intermediate_dense/einsum/Einsum;context_transformer_0/ffn_layer_3/intermediate_dense/Relu;context_transformer_0/ffn_layer_3/intermediate_dense/add f4 [32]
00000000: 1ba5 1fbe 345d 7abd 449c 943c c542 1dbe
00000010: da69 67be ae1c 81be 92ea d7bd 5669 4fbe
00000020: 32c9 37be 5d19 c1be 5612 7fbe e1d2 3dbe
00000030: 55d7 26be 8b19 48bc 62e5 d23d 729d efbc
00000040: 83b1 f9bd ca31 26bc d39d 60be d78d f4bd
00000050: 90a1 5fbe a55b afbd a56c 22be cae6 bbbd
00000060: 0a2c 0cbe 8651 aabe a4df 36be acee fabd
00000070: acb9 aabd 0785 72be f7e2 13be c822 96be
-0.15590326 -0.06112404 0.01814092 -0.15357502 -0.22598973 -0.25217193 -0.105427876 -0.20255026
-0.17947844 -0.37714663 -0.24909338 -0.18537475 -0.1629308 -0.012213121 0.102976575 -0.02924988
-0.12192061 -0.010143707 -0.21935205 -0.11941116 -0.21838975 -0.08562402 -0.15861757 -0.09174879
-0.13688675 -0.33265322 -0.1785875 -0.12252554 -0.08336195 -0.23683558 -0.14442049 -0.2932341
